
_________________________________________________________________
Estimating model: 2conv_2maxPool_1hl
=================================================================

Tokenising data ...
Applying GloVe embeddings ...
Reading data from data/input/train_raw.csv ...
Reading data from data/input/dev_raw.csv ...
Model: "sequential"
_________________________________________________________________
 Layer (type)                Output Shape              Param #   
=================================================================
 embedding (Embedding)       (None, 100, 100)          11553300  
                                                                 
 conv1d (Conv1D)             (None, 96, 128)           64128     
                                                                 
 max_pooling1d (MaxPooling1D  (None, 19, 128)          0         
 )                                                               
                                                                 
 conv1d_1 (Conv1D)           (None, 15, 128)           82048     
                                                                 
 max_pooling1d_1 (MaxPooling  (None, 3, 128)           0         
 1D)                                                             
                                                                 
 dense (Dense)               (None, 3, 128)            16512     
                                                                 
 flatten (Flatten)           (None, 384)               0         
                                                                 
 dense_1 (Dense)             (None, 1)                 385       
                                                                 
=================================================================
Total params: 11,716,373
Trainable params: 163,073
Non-trainable params: 11,553,300
_________________________________________________________________
Epoch 1/20
   1/2188 [..............................] - ETA: 21:03 - loss: 2.0199 - acc: 0.2969 - precision: 
…
